60000 train samples
10000 test samples
_________________________________________________________________
Layer (type)                 Output Shape              Param #   
=================================================================
dense (Dense)                (None, 128)               100480    
_________________________________________________________________
dropout (Dropout)            (None, 128)               0         
_________________________________________________________________
dense_1 (Dense)              (None, 64)                8256      
_________________________________________________________________
dropout_1 (Dropout)          (None, 64)                0         
_________________________________________________________________
dense_2 (Dense)              (None, 32)                2080      
_________________________________________________________________
dense_3 (Dense)              (None, 16)                528       
_________________________________________________________________
dense_4 (Dense)              (None, 32)                544       
_________________________________________________________________
dense_5 (Dense)              (None, 64)                2112      
_________________________________________________________________
dropout_2 (Dropout)          (None, 64)                0         
_________________________________________________________________
dense_6 (Dense)              (None, 10)                650       
=================================================================
Total params: 114,650
Trainable params: 114,650
Non-trainable params: 0
_________________________________________________________________
(10000, 784)
(4, 784)
[[… 